dqn_maze.pth (torch, 72210 bytes, 6 tensors)

fc1.weight f4 [128, 2]
00000000: d627 42bf 283d f83e 6af2 0d3d d8b1 233e
00000010: 73be cebd f1e5 0fbe aed3 2f3f fae7 1cbf
00000020: f67b 28bf 9e36 18bf 67b6 fe3e a2f2 a53e
00000030: c067 afbc 0c1a 68be 5756 003f e276 f1be
00000040: ecdb 1e3f 3fb6 a2bd 197b 003d 9e60 ccbe
00000050: 2c3d a33e 0c23 08bf 6898 c63d 2beb d1be
00000060: 3a57 05bf 8007 cabc fad6 353f e54d 0e3e
00000070: 776c d7be dc6a 023f acef 063f 5795 25bd
00000080: 47dc 803c e1f8 8f3d dc3a 26bf aeb0 11bf
00000090: 5a48 aa3e ef85 1dbf 148c 08bf 5ca2 0e3f
000000a0: 8485 c03e 4485 f2be 909b 153f c09b 18bf
000000b0: 7d32 e4be 3a23 73be bfdd 0fbf cf5d 0ebf
000000c0: a011 95be 6039 b13e f5ed 053f b109 12bf
000000d0: 9f41 00bf cf42 a3be 39b5 13bf d020 03bf
000000e0: b140 07bf d76c 733e 754a 3cbf 220a d53e
000000f0: 0834 513e 19ad 15bf 0065 9e3b bed4 18bf
00000100: 07ab 703e 27cd 233c 32dd 7cbe 7a51 c33e
00000110: 08ff da3d 1816 db3e c23d 083f bdf9 093f
00000120: 58ae ff3e 8396 9e3e 449b 173f 1bdb 0dbe
00000130: 030f 873c c68e 43bd b3d9 22bf 91d0 01be
00000140: fda0 223f 97ab ba3b f8e0 003f 805a 2a3e
00000150: 0691 ba3e ecad 46be 0107 e7be 6192 0abf
00000160: 9f14 3b3f 05a4 9abd 5292 8c3e 0f34 f7bc
00000170: 1215 f73d 745b f23e 38dd b33e 6310 09bf
00000180: 47a5 ac3e 3cf2 d13e e238 233f 9f90 15bf
00000190: a1cb b53e af83 883e ddc3 0e3f 8e83 5e3e
000001a0: 9906 0fbf 6a5d debc fb62 1d3e 0bb8 e53e
000001b0: ceb4 8f3e 37bf 073f f267 02be f654 1bbf
000001c0: b734 b43e 1384 113f 2366 163f 4c11 3cbf
000001d0: 9828 9fbe 5543 ce3e c67a 17bf c5c4 1d3f
000001e0: a722 863e 82a7 643b 127a 063f f140 303e
000001f0: 80a2 97bb b043 50bd ef2d 0dbf 624f 2cbf
00000200: 9273 cd3e 3e4a dabe 25c1 b73e 01ae 7c3e
00000210: 9096 393e 1095 04bd 08c9 dcbd 0fee 01bf
00000220: ec0e 19be 0019 a3bb acfc 103f d641 fa3e
00000230: 7959 713e ed8c 963e dcf9 3c3e faf3 cfbe
00000240: 00d2 9bbb 8d47 0b3f 079a 8bbe dd10 f13e
00000250: ecc7 203e b5be bfbe c32b 483e 2ad1 233f
00000260: a6f2 55be c40c 983e 156d e53d 843d 09be
00000270: 23d1 bd3e 0a18 c1bc 349b 35bf 79d2 8b3e
00000280: e49e 093e 38cc 30be 9efa 1dbf e7dd 103f
00000290: 207c c33d 6afa b63e 3e84 05bf 7186 1b3e
000002a0: 472b 293f 00e0 5e3e b08b 58be 167a 7dbe
000002b0: 644a 0a3e a747 c3be 7baf d8be 93c6 07bf
000002c0: ec69 063e 48ff 4ebe 7082 463e 004c 32ba
000002d0: 4a14 00bf 40d0 a93c 6c0a 58be 7df4 01bf
000002e0: bc5d 4abe 5b58 083d a3de 1f3f 0f46 193f
000002f0: 644c abbd d9fd 05be 6569 ebbe 488f d43d
00000300: 31c0 84be 35f2 13bf f039 033f 59fe 1a3e
00000310: 6f37 2dbf ec5d 2fbf 9c31 23be d915 1abf
00000320: 4875 efbd ee5b fbbe 2dbf 0bbf 72b2 213f
00000330: bd36 203f 0766 30bf ba6f c9be cf57 04bf
00000340: 52f2 623e 0f08 143f eea3 8d3e 7218 11bf
00000350: 8f8f 023f 9c37 36bf 5230 473f 0234 ae3e
00000360: 06bb edbe fb57 0ebf 1553 29bf a264 c5be
00000370: a493 d0be d182 f8bb 5341 223f 78e4 2bbe
00000380: ee20 e4be 769b 8a3e 9e2f 4b3e 62a7 eabe
00000390: 3091 f9be 8441 2cbf df1d ce3d 92af ec3e
000003a0: c031 733e 1c50 34be c35a 01bf 6d2d 06bf
000003b0: 0507 a6be 31dd a93e 8c3e 073f 42e2 963e
000003c0: 1bae 5abf c0c2 c03e 656a ee3e aa87 6dbe
000003d0: 743b 12be 0039 c23e 7bec dfbe 885d 673e
000003e0: b0af 0d3f 7310 10be fa01 173f bb5a 24bf
000003f0: 9e21 bb3e 2fd6 6e3e b06b 82be 7d40 bbbe
-0.75842035 0.4848416 0.034655012 0.15985811 -0.10094919 -0.1405256 0.6868237 -0.6129147
-0.6581415 -0.5945834 0.49748537 0.32411677 -0.021411777 -0.22666186 0.50131744 -0.47161013
0.62054324 -0.07944917 0.031367395 -0.39917463 0.31882608 -0.5317848 0.09697038 -0.4099973
-0.5208622 -0.02466178 0.71031153 0.13896902 -0.4207494 0.50944304 0.5270946 -0.040425625
0.015730036 0.07029892 -0.6493356 -0.56910217 0.33258325 -0.6153249 -0.5333874 0.5571649
0.37601864 -0.473673 0.58440495 -0.59612656 -0.4456977 -0.23743907 -0.5619773 -0.5561189
-0.2911501 0.34614086 0.5231622 -0.5704604 -0.5010013 -0.31886908 -0.576984 -0.5122194
-0.52833086 0.23771988 -0.7355111 0.41609293 0.20430005 -0.5846725 0.0048338175 -0.5969962
0.23502742 0.009997643 -0.24693754 0.381481 0.106931746 0.42790294 0.53219235 0.53896695
0.499377 0.30974206 0.5922129 -0.13853113 0.01648665 -0.04774358 -0.6361343 -0.12677218
0.635269 0.0056967246 0.50343275 0.16636086 0.3643877 -0.19402283 -0.4512253 -0.54129606
0.7307834 -0.075508155 0.27455384 -0.03017619 0.12064566 0.47335398 0.35129714 -0.5354063
0.33719847 0.41005123 0.6375867 -0.584238 0.3550692 0.26662967 0.55767614 0.21729872
-0.5586944 -0.027144153 0.1536979 0.44866976 0.2806763 0.53026146 -0.12734964 -0.60676515
0.35196468 0.56842154 0.587496 -0.7346389 -0.31085658 0.40285745 -0.5917171 0.6162837
0.26198313 0.0034889881 0.52530015 0.17212273 -0.004627526 -0.0508458 -0.55148214 -0.6730863
0.40127236 -0.42634767 0.35889545 0.24675752 0.18123841 -0.03236872 -0.10780531 -0.50753874
-0.14947098 -0.0049773455 0.56635547 0.48878354 0.23569287 0.29404393 0.18454689 -0.40615827
-0.0047552586 0.5440605 -0.2726595 0.47083178 0.15701264 -0.37450185 0.19547944 0.63991034
-0.20893344 0.2969724 0.11202446 -0.13402373 0.3707362 -0.023571033 -0.70939946 0.27309015
0.13439518 -0.17265403 -0.61710536 0.56588596 0.09545159 0.35737926 -0.5215491 0.15188004
0.6608166 0.21765137 -0.21147037 -0.24753603 0.1350494 -0.38140604 -0.4232138 -0.53037375
0.13126343 -0.2021457 0.19385695 -0.0006801486 -0.5003096 0.020729184 -0.21097726 -0.50763685
-0.1976232 0.033287387 0.6244909 0.59872526 -0.0836418 -0.13085116 -0.45978847 0.10378891
-0.2592788 -0.57791454 0.5126028 0.15136088 -0.6766271 -0.6850269 -0.15936893 -0.60189587
-0.116922915 -0.49093574 -0.54588586 0.6316291 0.62583524 -0.6890568 -0.39343053 -0.51696485
0.2216275 0.57824796 0.2766413 -0.56677926 0.51000303 -0.71178603 0.77808106 0.34024054
-0.4643175 -0.55603 -0.661424 -0.3855334 -0.4073764 -0.007583954 0.63380927 -0.16786373
-0.44556373 0.27071732 0.19842383 -0.45830828 -0.48743582 -0.6728747 0.10064291 0.462277
0.23749447 -0.17608684 -0.50529116 -0.52413064 -0.3242723 0.33176568 0.52829814 0.29469496
-0.85421914 0.37648582 0.46565548 -0.23196283 -0.14280492 0.37934113 -0.43735108 0.22594273
0.553462 -0.14068775 0.5898739 -0.64200944 0.36549085 0.23323892 -0.25472784 -0.36572638

fc1.bias f4 [128]
00000000: cf3d 8c3e f1d1 c63d 3d04 143e 14e7 ec3c
00000010: 9031 fbbd 2d38 ed3d 90bc 0ebd eebe 02bf
00000020: 38a5 54be 557e 773e 8d86 a3be 1f7f d93d
00000030: 5a60 9ebe 8c11 adbe cb0e a53d 4244 333e
00000040: f2bb dbbc d989 7e3e c8e9 cdbe 89e4 ee3e
00000050: 0a4f 343e ac12 9a3e 9021 27bf 031f 373f
00000060: 8c71 943e 7c90 413e 89e4 ff3e 00ce 4bbb
00000070: 7fdb d8bd 3cb0 69be 8660 acbe 1f48 87be
00000080: be72 8abd 0757 2abf 2087 5abe c2f9 e3be
00000090: e64f d4bd cc26 c6be 2143 f43e 0cb6 6f3e
000000a0: 723b 3a3d da2f 93be 26f4 2fbf 678d 503e
000000b0: b664 7fbe 3367 b03e 6f35 e8bc 519f f03e
000000c0: bde7 043f 557f d23d c2bb 20bf 3820 0f3f
000000d0: fa75 8f3e c24e 6bbd 60eb a7be a18d 0f3f
000000e0: 440b 0e3f 7b18 7d3e 5fbb c83d 40b7 283e
000000f0: 8017 a43e b1c4 73be 4c6f 1fbf 2019 28be
00000100: 773f f93e 5477 c93d 0539 1cbf 90ed a3bd
00000110: 200f 1fbd a121 10bf c9a2 11bf d765 3fbe
00000120: bed9 29bf 27b9 bfbe e185 f73d 4c6c 6cbe
00000130: e640 d53e b65d d73e 87c0 02be c134 bd3e
00000140: d12e 34bf ddd5 a9be fb5a 26bf b782 ebbc
00000150: b014 88be fb59 25bf f0d5 793d 7df4 ab3e
00000160: 5068 0abf b4e4 17bf 7cd0 eabe 91dd 22bf
00000170: 1927 463e 32b6 2fbf 36d3 043f da6c 97be
00000180: 8aa2 1b3f 7679 2cbf fe18 21bf 94be 58be
00000190: 6c10 8abe fe26 dabe 628e a7bd 761b 0f3f
000001a0: 7653 423e 5804 2dbf 6fa9 18bd a8d3 f6be
000001b0: 8680 4b3e 901d e1bd a592 773e e458 33bf
000001c0: 7d90 23bf ecf5 66be 7052 79bd 9578 99be
000001d0: a14f 14bf 9ee1 c03e 716e 0e3f cc33 bcbe
000001e0: 76bf f73e 6d09 91bd dcc7 ed3c fad5 d53e
000001f0: fd3c b63e d065 3e3e 0b03 6b3e 097c 623e
0.27390906 0.09708012 0.14454742 0.02891878 -0.12265313 0.1158298 -0.034847796 -0.51072586
-0.20766151 0.24169286 -0.31938592 0.106199495 -0.30932885 -0.3380245 0.08059462 0.17506507
-0.026823018 0.24857272 -0.40217423 0.46658733 0.17608276 0.3009237 -0.6528559 0.71531695
0.2899288 0.18902773 0.49979046 -0.0031098127 -0.105887406 -0.22821134 -0.33667392 -0.26422212
-0.067601666 -0.66539043 -0.21340609 -0.44526488 -0.10366802 -0.38701475 0.47707465 0.23409289
0.045466848 -0.28747445 -0.68731916 0.2036644 -0.24940762 0.34453735 -0.028345792 0.4699655
0.51916105 0.10278193 -0.62786496 0.55908537 0.28019696 -0.057448156 -0.32796764 0.56075484
0.5548594 0.2471637 0.09801363 0.16476154 0.3204918 -0.238055 -0.622792 -0.16415834
0.48681232 0.09837213 -0.61024505 -0.08004296 -0.038832784 -0.56301314 -0.56889015 -0.18691193
-0.66347873 -0.37445948 0.12086082 -0.23088187 0.41651076 0.42063683 -0.12768756 0.3695431
-0.70383936 -0.33170977 -0.64982575 -0.028748853 -0.26578283 -0.64590424 0.060995042 0.33584967
-0.5406542 -0.5933335 -0.45862186 -0.63619334 0.19350852 -0.68637383 0.5188478 -0.29575235
0.6079489 -0.67372835 -0.6292876 -0.2116645 -0.26965654 -0.42607874 -0.08181454 0.5590128
0.1897715 -0.67584753 -0.03727096 -0.48208356 0.19873247 -0.10991967 0.24177034 -0.7005751
-0.63892347 -0.22554749 -0.060869634 -0.2997481 -0.57934004 0.37672132 0.5563727 -0.36758268
0.4838826 -0.07081876 0.029025964 0.41764814 0.35593405 0.18593526 0.2295038 0.22117628

fc2.weight f4 [128, 128]
00000000: ab4d 633d 8814 ebbc 5596 91bd e159 24bd
00000010: a074 bb3c 2269 9b3d a0c5 8b3b 2881 123c
00000020: 2f15 a73d a2f3 85bc cb7d 8bbd 109c 453c
00000030: c0cc afba 4260 a13d 864f 3fbd 866e fe3b
00000040: c946 acbd c05f ac3a 1c1f f9bc df34 8e3d
00000050: a883 223c e933 a4bd 5891 223c d743 44bd
00000060: ed8d e13b 8a61 b3bd 808c 9a3c 9eb5 52bd
00000070: 3e03 69bd 7985 2c3d 7e7f 4f3d 8c0e b33c
00000080: dbf7 f03a 0e07 08bd b056 6d3d 3411 99bc
00000090: 2d2b 0b3d cacb 7c3d a31d 983d 9cc0 8bbd
000000a0: 8051 00bd ceef 7fbd 688d 433c a2a5 4b3d
000000b0: e040 673c d7fc abbd ed6b 6ebd d5b9 aebd
000000c0: 5bb0 833d 2b9b 69bd 7461 083d 80e3 77bd
000000d0: 3b18 a6bd 023e b93c c727 2bbd fd98 9fbd
000000e0: d674 afbd c000 883c 1805 23bd a4f0 253d
000000f0: 577b 34bd 03f9 a53d a8b0 113d 2e99 4c3d
00000100: 6281 2e3d 195c 273d 9ca0 57bd 248c 93bd
00000110: de7d 743d 8422 31bd 60e1 8f3b d6da 6d3d
00000120: 8352 b13d 136f 423d b40c babc 5f4b 7abd
00000130: 2c36 75bb 2869 0ebc f0b5 a7bc 558c b4bd
00000140: 9032 57bc 9288 353c 384c 7d3c 9445 d3bc
00000150: 5b0a ca38 3c4e b33c 10e5 fabb e051 023b
00000160: 7f71 45bd 80ae ac3a 36b5 8ebd 1871 7cbd
00000170: c2a0 673d 1415 28bd b911 10bd a4f1 913c
00000180: 4e57 e13b dcbe 0cbd d0fd eebb 2e55 77bd
00000190: e30d 9b3d e789 8fbd 405d 06bb 1436 b5bc
000001a0: 88ab e83a 064d 6e3d 6e9c 273d afbf 8d3d
000001b0: 12d1 5c3d 64a2 0dbd ae1f 2ebc 008d 7dbc
000001c0: 70a7 96bb d87d 153c aab8 7d3d 516b c33c
000001d0: ff20 aa3d 60a0 6c3b 0e0c 983b 9063 80bb
000001e0: 41d4 ac3d dec6 2e3d 0e82 9fbd b75b 30bd
000001f0: e11e 753c 24f8 d83c 3dff 053d 1a74 a9bd
00000200: be88 7c3d 9e77 193d 058d a2bd ca2e 2a3d
00000210: c04f 7ebd d634 0b3d 1a5a 2e3d 6a64 593d
00000220: e8ef e83c 9d3d 8b3d 98f9 473c 5677 d8bc
00000230: cc60 dc3c 023c 143d 982f fdbc 0009 86bc
00000240: c482 aebc 4e37 123d d0ec 7dbd 3b33 8f3d
00000250: 462b 503d 6dde 31bd b8a7 353c 1ce3 98bc
00000260: bfff 9c3d 77fb 35bd 8241 94bd e49e 9e3c
00000270: cb9a 8e3d 9c02 fd3c 59f7 84bd 5046 553c
00000280: 0292 313d 902c 313c ee75 d7bc 6434 8abd
00000290: 604c 95bb 7792 a0bd 0f0d 22bd 23bb af3d
000002a0: be2f 63bd cb56 62bd df14 8c3d 0145 923d
000002b0: 866c 4fbd 4215 493d 5f89 a83d b89e 80bd
000002c0: 46ab 323d 58a0 26bc b4d1 82bc bbba 923d
000002d0: 1771 a83d 4f17 36bd 8aae 373d c8f9 91bd
000002e0: 54c5 41bd b4be b83c c020 233c 900d e53b
000002f0: 9867 3a3c 946e f63c 7015 163c cced 9d3c
00000300: 8c54 76bd c484 01bd bd67 a73d 14b9 89bc
00000310: 40c9 c9bc 6d06 b43d a8a0 953c 08f7 95bd
00000320: d6b3 693d 7862 7a3c 60e2 6a3c 8c6d 91bd
00000330: de7d 8abd 890f 80bd 3ec5 dabc ab41 acbd
00000340: ff15 9b3d c8e3 753c 4afb 0bbd febc 8bbd
00000350: 603d 76bc 2013 203c f893 aa3c b32d 9c3d
00000360: 8a70 073d 5270 423d db59 9dbd de22 153d
00000370: a2ab 5f3d 403a 47bc b827 6cbd e06b 18bd
00000380: 9887 74bc 3bef 51bd 80a6 533c 06e2 32bd
00000390: 5ed7 6ebd 28da 97bd 3469 b1bd bdc0 ac3d
000003a0: 00aa 453b 2c3d 0e3d c6cd 7b3d 9ca3 7cbd
000003b0: d971 58bd 4661 5abd 9833 a63c 3007 073c
000003c0: 574c 8ebd 4fff 943d 69f8 8c3d f835 303c
000003d0: ce80 17bd 0043 0fba 3deb 58bd 6985 8d3d
000003e0: 6b67 aabd 1949 48bd 81d7 85bd 4403 95bd
000003f0: db15 aa3d 3920 813d e44e b3bd 7208 233d
0.05549399 -0.028696314 -0.07108752 -0.040124778 0.02288276 0.07588412 0.004265502 0.008941926
0.08158337 -0.016351525 -0.068111025 0.012061134 -0.0013412461 0.07879688 -0.0467067 0.0077646403
-0.08411939 0.0013151094 -0.030410342 0.06943678 0.009919085 -0.080177136 0.009922348 -0.04791626
0.006883374 -0.087588385 0.018865824 -0.051442735 -0.056887858 0.042119477 0.050658695 0.021857522
0.0018384414 -0.033209853 0.057944 -0.01868496 0.033976723 0.061717786 0.07427528 -0.06823847
-0.031327724 -0.062484555 0.011935569 0.049718507 0.0141145885 -0.08397835 -0.058208395 -0.085315384
0.064301215 -0.057032745 0.033296064 -0.060519695 -0.0811009 0.022612575 -0.04178598 -0.07792852
-0.085672066 0.01660192 -0.03979978 0.040512696 -0.04406294 0.08104136 0.035568863 0.04995077
0.042603858 0.040859316 -0.052643403 -0.07204464 0.05969035 -0.043245807 0.0043908805 0.058070026
0.08658316 0.04746921 -0.022711135 -0.061107036 -0.0037416322 -0.008692063 -0.020472497 -0.08815829
-0.013134614 0.011079924 0.0154600665 -0.025790013 9.6340395e-05 0.021887891 -0.007656701 0.0019885227
-0.04820394 0.0013174564 -0.06968157 -0.061631292 0.056549795 -0.041035727 -0.03517315 0.017815419
0.0068768626 -0.034361705 -0.0072934404 -0.060383968 0.07571008 -0.07008725 -0.0020502359 -0.022120513
0.0017751316 0.058178924 0.040920667 0.06921326 0.053910322 -0.034578696 -0.01062767 -0.015475512
-0.004597597 0.009124242 0.061943687 0.023854883 0.08307075 0.0036106333 0.004640109 -0.003918119
0.08438922 0.042670123 -0.07788478 -0.043056216 0.014960975 0.02648551 0.032714117 -0.08274098
0.061653845 0.03746759 -0.079370536 0.041548528 -0.062087774 0.033985935 0.042566396 0.053074278
0.028434709 0.06798861 0.012205504 -0.026424091 0.026901625 0.03619004 -0.030906484 -0.016361713
-0.021302588 0.035697274 -0.06199342 0.06992193 0.05082252 -0.043425012 0.011087351 -0.018662982
0.07665967 -0.04442927 -0.07239057 0.019362874 0.06963118 0.030885033 -0.0649249 0.013017252
0.043352135 0.010813847 -0.02630135 -0.06748274 -0.0045562238 -0.07840436 -0.039563235 0.08580615
-0.055465452 -0.055258553 0.06839918 0.07142068 -0.050640605 0.04909254 0.082293265 -0.06280273
0.04362037 -0.010170065 -0.015969135 0.07164522 0.08224695 -0.044455823 0.044844188 -0.0712772
-0.047307327 0.022551872 0.009956539 0.006990142 0.011377238 0.030082025 0.009160385 0.01927843
-0.060139224 -0.031620756 0.081740834 -0.016811885 -0.024632096 0.08790288 0.018265083 -0.07322508
0.05705627 0.015282266 0.014336199 -0.071009725 -0.067622885 -0.06252963 -0.02670538 -0.08410963
0.07572555 0.015007921 -0.034175195 -0.06823157 -0.015029281 0.009770185 0.02082251 0.07625904
0.03306631 0.0474704 -0.07683154 0.036410205 0.05460704 -0.012159884 -0.057655066 -0.037212253
-0.014924906 -0.05125354 0.012918115 -0.043672584 -0.05831086 -0.07414657 -0.08662644 0.084351994
0.0030161142 0.034726307 0.061475538 -0.061679468 -0.05284295 -0.053315423 0.020288274 0.00824146
-0.069481544 0.07275259 0.06883318 0.010755055 -0.036988072 -0.0005465001 -0.052958716 0.069102116
-0.08320507 -0.048897836 -0.06535245 -0.072760135 0.0830495 0.06304974 -0.087552816 0.039802976

fc2.bias f4 [128]
00000000: c457 2cbd 261a 0a3d 961d 61bd 5e56 0a3d
00000010: 96b4 583d 8f75 93bd 86b9 3d3d 1940 a1bd
00000020: 672c 4dbd 0c0f 80ba c20b 9cbd 7e93 a3bd
00000030: 7c0d 81bc 4fae a03d 7e06 64bd 1b18 ab3c
00000040: 50c2 f4bb 6625 b0bd 2b59 3dbd 2c45 bd3c
00000050: 58a9 82bc 4b59 233d c658 c7bc 9e9d 43bc
00000060: 5206 61bd 2fe1 3e3d 4aa6 2f3d d22a a7bd
00000070: 7c2c 9c3c f268 623d ba4a 92bd 8703 14bd
00000080: cd66 343b f67d 713d 9004 0ebd 8888 6abd
00000090: 3113 31bd 68ae 52bc fd18 693d f322 7ebd
000000a0: 2446 ad3d b866 13bc 206c 8a3c 51b4 4fbd
000000b0: b8d9 40bd 0ca7 0abd 376e 7e3d 371e 06bd
000000c0: 09f0 67bd a706 aebb 35fe 1abb 498a 6f3d
000000d0: 14f2 51bd 0d7a 85bd 27b3 ccbb dfcd 5abc
000000e0: ad33 c93c 7e91 20bc d260 14bc 5e2a 07bd
000000f0: 6f53 443d 9cc2 8fbc acb3 a63c 5b5d 18bd
00000100: 5802 5dbc c045 b4ba b666 14bd 3e1d 643d
00000110: fabd 07bd d48c bdbd de6e 4a3d f766 0f3d
00000120: 3738 a23d d3f4 9dbb 2177 1bbd 0b31 d43c
00000130: 1cde 94bc 56a8 89bc 442e 943c 5161 5ebd
00000140: 0fcb 0abd ef91 43bd 9617 0a3d 6808 a93d
00000150: 9331 acbd 12d8 12bd 2ef3 2cbd 2d57 99bd
00000160: 9049 8fbd 430e 573d acea 1bbd e035 80bd
00000170: 6a72 853d 1a3e 5fbd 8150 bdbb 6dd2 873c
00000180: 88c9 693d dba1 86bd ee8a 84bd dd01 873d
00000190: 561c 94bc 62a4 353d 387a 8e3a 2145 1dbd
000001a0: 6377 2e3c 3a22 163d 865b f4bc 8c1b 0c3d
000001b0: 6e49 e03c 204b 353c 766d 4dbd e285 64bd
000001c0: 5326 01bd 749d 04bd 4d22 b6bd d66b 563d
000001d0: 49d8 febc 3ca1 75bd 1e82 71bd 86b5 62bd
000001e0: 7054 473d 1978 e53b 6b8d 8d3d 23a1 abbd
000001f0: 4aa7 71bd 6086 193c 76d1 82bc ea8a e33c
-0.042075887 0.033716343 -0.054959856 0.033773772 0.052906595 -0.07200157 0.046319507 -0.07873554
-0.050091173 -0.0009770109 -0.0761943 -0.07987116 -0.0157535 0.07845747 -0.055670254 0.020885518
-0.007469453 -0.08600883 -0.046227615 0.023104273 -0.01594989 0.03988008 -0.024334323 -0.011939434
-0.05493767 0.04660147 0.042883195 -0.08162464 0.01906418 0.055275865 -0.07143159 -0.036136176
0.0027527094 0.058958016 -0.03467232 -0.057259113 -0.043231193 -0.0128589645 0.056908596 -0.06204505
0.08460644 -0.008996658 0.016897261 -0.050709073 -0.047082633 -0.033850715 0.062116828 -0.03274366
-0.0566254 -0.0053108516 -0.0023650054 0.05848149 -0.051256254 -0.0651742 -0.0062469426 -0.013354748
0.024560774 -0.009800313 -0.009056287 -0.03299939 0.04793113 -0.017548852 0.020349346 -0.037198406
-0.013489328 -0.0013753697 -0.036230765 0.05569195 -0.03314016 -0.092553765 0.049422137 0.035010304
0.079208784 -0.004820445 -0.037955407 0.025902292 -0.018172316 -0.016803902 0.018088467 -0.054292027
-0.033885058 -0.047746595 0.0337139 0.082535565 -0.08407893 -0.035850592 -0.0422241 -0.074873306
-0.06996453 0.052503835 -0.038065597 -0.06260276 0.065159634 -0.054502584 -0.005777419 0.016579831
0.05707696 -0.0657384 -0.06471811 0.06592152 -0.018079918 0.04434622 0.0010870164 -0.038396005
0.010648581 0.036653735 -0.029828798 0.03420596 0.027378764 0.0110652745 -0.05015322 -0.055791743
-0.03153069 -0.03237672 -0.08893261 0.052348934 -0.031108992 -0.05996822 -0.05896198 -0.055348895
0.04866451 0.007002842 0.06911739 -0.08380344 -0.05899743 0.009370416 -0.01596902 0.0277762

fc3.weight f4 [4, 128]
00000000: 5e97 89bd 7ec6 36bd d71d 76bd 6c26 2a3d
00000010: a8b9 183b ea85 8fbd 9d41 bc39 541d db3c
00000020: 45a9 af3d ca66 eaba 568f 02bd b363 83bd
00000030: b4c8 7bbc 59e8 5b3d f249 70bd 1d39 7ebd
00000040: b22c 643d c839 27bc 9cf6 f33a f4ee cbbc
00000050: f001 ed3b 05d0 1b3b 89a8 993c f7fc e23c
00000060: e11e 963d 3680 a6bd f4b6 183d 7532 03bd
00000070: f67c 2bbd cd40 a73c 2cde 8abc 62a6 29bb
00000080: a57d d53c ec4b 5e3d 4e58 eaba bcfc 29bd
00000090: 159e 24bd 6c4f a43c 9858 d8bc 4809 efbc
000000a0: 5537 edbc 4899 04bc cb40 953d 9807 e73d
000000b0: 14c4 8dbc 8381 9abd 2f56 4dbd 4a5e 88bd
000000c0: 7580 2b3d d080 c73c f0bf c13c cfcd fd3b
000000d0: 6daf d33c 48c9 d1bc 6188 513c 8173 ac3d
000000e0: 65fb 443d c4df 273d 441e cfbd e407 543d
000000f0: 7dd3 8cbd 6013 533b b474 2e3d 0ee0 003d
00000100: 57b0 12bd e581 a33d fd3a 6ebd 4d7e 1abd
00000110: 986c 9cbd d228 66bd 8b11 a73d c9f0 82bc
00000120: 2b93 05bd dbb5 8fbd 7560 1fbd ccdd 35bd
00000130: e06c 163e b32e 1e3d 7f3f 133d ea92 443d
00000140: 258f 5d3d 10ec 63bd 811c fcbc 430d 5bbc
00000150: f1b4 9ebd fd89 9d3d 164d b93c 8049 ea3c
00000160: 60a2 8dbd 8f45 133c 7c35 983c 2620 93bd
00000170: 378d 2c3d a6af c73d 3682 893d da89 053d
00000180: d189 5c3d 4ae5 b33c d049 c23b de3b 533c
00000190: dd37 1abd efe8 96bc aca7 75bd b7e2 6fbd
000001a0: b984 393b a990 2f3d bf08 ac3d 1fbe b9bd
000001b0: 50c9 72bd 3085 f33b e694 23bc 4b80 48bd
000001c0: e801 5d3c ecd6 63bd 82e9 673b cb3e 353c
000001d0: a3bb 2cbd 5f08 9b3d e652 173d da03 373d
000001e0: a4f1 f3bb 5e9f 923d f85a 46bc 7f83 6dbd
000001f0: 5b00 d1bc 862a 40bc 0796 7ebd 69eb da3c
00000200: a7c7 6dbd 809d ba3a 4019 9dbc f9c8 81bc
00000210: b4fc ec3c f78d afbd a827 4d3d 512b 973d
00000220: 38f2 68bd 656f 233d 8095 5c3a 1e91 6b3d
00000230: d1a9 fe3a 5b86 a03d 3082 04bd 6a51 a7bd
00000240: 5852 7a3c 4095 533b 93a0 0cbc 53da 823d
00000250: f481 b33b 1894 bebc 5511 1e3d 42db 353d
00000260: 0026 76bc 3ff5 80bc 9397 eb3c b334 b4bd
00000270: d718 9fbd 4a1a 03bd ebe5 b23d 5d05 5fba
00000280: 358a 7e3d 173a d53c 0e7e 993c 340f a93b
00000290: 106b 0f3d 7a7d 4abd 5da4 5abd 7c74 b0bc
000002a0: fe97 163c c7fd 913d 28b4 7bbc 2da7 a73d
000002b0: a055 1f3c 31b7 82bd 4b0e 3fbd cc95 cebb
000002c0: 4dce 073d da99 673d 1b46 57bd 4342 153b
000002d0: 0825 df3d 0d8d c23c 750a 38bb 122e 9bbc
000002e0: 79d8 b73d afae 6f3d c996 303d 75dd dabc
000002f0: 3e53 d5bd e939 8cbd 2753 953d 504b 79bc
00000300: 0013 b0b9 306d c83c 5869 72bd ebe8 a6bc
00000310: 1c3e b2bc 967c 603d fad8 31bd bc53 36bb
00000320: 2c0c ee3c e2d0 5bbd c0b4 543c c952 83bc
00000330: 9400 8b3d 81a1 e0bc 4cfa 953c 2412 1f3d
00000340: 11af 8e3d 585f 4f3d b61a 6fbd 228d 9d3a
00000350: b520 5f3c 9274 64bd aed9 20bd 7f2b 543d
00000360: f438 aebc b782 0c3d 41c7 ee3c f17d 90bd
00000370: 87df 9dbc cb35 803d 6011 a73d 5822 44bd
00000380: 93e8 0b3d 092f 393d 0f4b 42bd 0014 67bd
00000390: 6812 a8bd 45c9 1a3d 494a 213d e35f 53bc
000003a0: fe90 33bb 4ff3 5bbd a7b8 3ebd 5673 c2bd
000003b0: 89be abbc c94a 89bd 758e a1bc 51e2 3ebd
000003c0: d629 97bd a837 85bd e83c 7d3d cfa1 c93c
000003d0: 6bc2 93bc 9aaf 7bbd e45a ddbc 5ae4 253d
000003e0: 7840 56bd 3aa4 30bd 403a 7c3c 1c92 783d
000003f0: 1d65 fd3b 8cf4 ffbc 2e4c 96bd a7f2 743d
-0.06718324 -0.04462289 -0.06008705 0.04154055 0.002330402 -0.07007964 0.0003590704 0.026747383
0.085772075 -0.0017883417 -0.031874977 -0.064155005 -0.015367676 0.05368838 -0.05866427 -0.062066186
0.055706687 -0.010206647 0.0018612924 -0.024894215 0.007232897 0.0023775112 0.018757122 0.027708514
0.073301084 -0.08129923 0.037283853 -0.03203054 -0.04186722 0.020416642 -0.016951643 -0.0025886525
0.026060889 0.054271623 -0.00178791 -0.041500792 -0.04018982 0.020057403 -0.026409432 -0.02917923
-0.028957048 -0.008093186 0.07287749 0.11280745 -0.017305411 -0.07544234 -0.05013102 -0.06658609
0.041870553 0.024353415 0.023651093 0.0077454816 0.025840485 -0.025608674 0.012788863 0.08420468
0.04809131 0.040984884 -0.101131946 0.051765338 -0.06876276 0.0032207593 0.042591766 0.031463675
-0.035812702 0.0798376 -0.058161724 -0.037718106 -0.076379 -0.056191273 0.08157643 -0.015983956
-0.032611053 -0.07017108 -0.038910348 -0.044400975 0.1468997 0.038618755 0.035949226 0.04799167
0.05409159 -0.05564505 -0.03077531 -0.013369861 -0.077493556 0.07692335 0.022619765 0.0285995
-0.06915736 0.008988752 0.01858019 -0.07183866 0.04212686 0.09750299 0.06714289 0.03260217
0.05384237 0.02195992 0.0059292093 0.012892691 -0.03765093 -0.018421618 -0.059974357 -0.05856582
0.0028307869 0.042862568 0.08400106 -0.09069466 -0.059274018 0.0074316487 -0.009984231 -0.048950475
0.013489224 -0.055624887 0.0035386984 0.011062334 -0.04217113 0.07569956 0.036944292 0.044681408
-0.0074445773 0.07159303 -0.01210665 -0.057986733 -0.025512865 -0.011728888 -0.062154796 0.02672358
-0.05805173 0.0014237612 -0.01917708 -0.015842902 0.028929092 -0.085719995 0.050086647 0.07381309
-0.056871623 0.039901156 0.0008414611 0.05751144 0.0019429271 0.07838126 -0.03235072 -0.081698254
0.015278421 0.0032285005 -0.008583206 0.06389298 0.005478138 -0.023263976 0.038590748 0.044398554
-0.015023708 -0.015741942 0.0287588 -0.08799114 -0.0776841 -0.032007493 0.087352596 -0.0008507574
0.062143523 0.026028676 0.018736865 0.005159283 0.035014212 -0.04943607 -0.053379405 -0.02153992
0.009191511 0.07128482 -0.015362777 0.08186183 0.009725004 -0.06382597 -0.04664449 -0.0063044783
0.033155728 0.05654321 -0.052557092 0.002277509 0.10895735 0.023748899 -0.0028082405 -0.018942866
0.08976836 0.0585162 0.04311255 -0.026716927 -0.10416268 -0.06846983 0.07291251 -0.01521571
-0.00033583492 0.024466127 -0.059182495 -0.020374736 -0.021758132 0.054806314 -0.043419816 -0.0027820906
0.029058538 -0.053666003 0.012982547 -0.016030686 0.0678722 -0.027420761 0.018307827 0.03883566
0.06966985 0.050628036 -0.058375083 0.001202021 0.013618638 -0.055775233 -0.039270096 0.051799294
-0.021267392 0.034304347 0.029147746 -0.070552714 -0.019271625 0.0626026 0.08157611 -0.047884315
0.034157347 0.04521087 -0.047434863 -0.056415558 -0.08206636 0.0377896 0.039377484 -0.012901279
-0.0027399655 -0.053698834 -0.046562817 -0.09494655 -0.020964878 -0.06703717 -0.01972125 -0.04660255
-0.073810264 -0.06504756 0.061825663 0.02461329 -0.018037042 -0.061446764 -0.02702088 0.040500976
-0.052307576 -0.04312537 0.015394747 0.060686216 0.007733001 -0.031244539 -0.07338749 0.059801724

fc3.bias f4 [4]
00000000: 3b51 023d 88b6 b93b 4e46 84bb 2f47 19bd
0.03181575 0.0056675114 -0.0040367013 -0.0374214
