qnet.pth (torch, 72241 bytes, 6 tensors)

fc1.weight f4 [128, 2]
000000 91 aa 23 3f 62 ee 90 3e 6e cd 97 3e 77 58 1b bf
       0.6393214 0.28306872 0.29648918 -0.6068186
000010 7b 18 14 3f c0 7c 60 bd 6d 0b 99 be ad 21 8f 3d
       0.57849854 -0.05480647 -0.2989153 0.06988845
000020 1e 75 d1 be ee f2 80 3d 54 c1 13 bf c0 ea 2e 3d
       -0.40909666 0.06296335 -0.5771687 0.042704344
000030 df e4 6c 3e 54 01 04 3f 59 7a fc be b2 3c 3d 3d
       0.23134182 0.51564527 -0.49312094 0.04620046
000040 a7 c4 fc 3e 46 3d 00 3e 5b 17 8d be 09 c2 0c 3e
       0.49368784 0.12523374 -0.2755688 0.13745894
000050 bd a4 fc be cc 42 87 3d 2b 3b a8 be be 7f f8 be
       -0.49344435 0.06604537 -0.32857642 -0.4853496
000060 60 5a 31 3f bd b2 ea 3e 00 9c 56 be 8d 72 f9 3e
       0.69278526 0.4583949 -0.20957947 0.48720208
000070 df 26 14 3f a0 1c 01 bd 4e 69 56 3e 75 c5 5f bf
       0.5787181 -0.03152144 0.20938608 -0.8741067
000080 59 82 be be 90 35 63 bd 40 23 4a be 4e 87 ca 3e
       -0.37208822 -0.055471003 -0.1974001 0.39556354
000090 98 d7 8f 3e f8 1a c5 3d 27 92 3a bd 83 95 2e 3f
       0.28094172 0.096242845 -0.045549538 0.68196887
0000a0 1d a4 0b bf 66 8c f7 3e 96 3d 3d be 58 02 08 be
       -0.5454729 0.48349303 -0.18480524 -0.13282144
0000b0 ad 93 fc 3e fc 34 dc 3d 1e be e2 be 5e 50 c5 3e
       0.49331418 0.107522935 -0.44285673 0.38537878
0000c0 87 45 33 3e cd e9 65 bf 76 2f 3c 3f 72 bd 49 be
       0.17506991 -0.89809877 0.7350992 -0.19701174
0000d0 92 c7 eb 3e 50 d2 ac 3d df 31 32 3f 14 ee 17 bf
       0.46050698 0.084385514 0.6960735 -0.59347653
0000e0 00 a3 34 bf 27 2a 8c 3e 5f 98 34 bf 12 81 88 be
       -0.7056122 0.2737591 -0.70545 -0.26660973
0000f0 0d df 1e bf e8 c6 2a bf 04 19 89 3e ac 8e 1e be
       -0.620591 -0.66709757 0.26776898 -0.15484113
000100 bc 38 62 3e 90 38 79 be 16 ef 8d 3d cf 5e de 3e
       0.22091955 -0.24337983 0.06930368 0.43431708
000110 8b 31 03 be 4c c0 59 3f c0 c9 ef 3e 2b 17 e5 be
       -0.12811868 0.85059047 0.4683361 -0.44744238
000120 55 47 ff bd 6c 51 45 3f c9 76 1b 3f ba 46 43 be
       -0.124647774 0.77077365 0.60728127 -0.19069949
000130 cf 15 0b bf e8 78 8d be b0 9f 33 bf 94 5c 31 be
       -0.5433015 -0.27631307 -0.7016554 -0.17320472
000140 28 a9 d4 bd 83 be d6 be 9e f5 04 be 33 ce ab be
       -0.103838265 -0.41942224 -0.1298432 -0.33555755
000150 db 83 5e 3d d3 c0 d3 be d3 df 4d 3f 68 35 15 3e
       0.054324966 -0.4135805 0.80419654 0.14571154
000160 c8 74 3d 3f 99 44 22 3e 01 1a 81 be 78 25 7b 3e
       0.7400632 0.1584648 -0.25215152 0.24526012
000170 6a 87 21 3f 64 d0 21 3f dc b1 fb 3e 20 eb 16 3f
       0.6309725 0.63208604 0.49159133 0.5895252
000180 2e d4 c5 3e 2f cf c6 be 61 d5 25 bc 8d a6 3b 3f
       0.38638443 -0.38829944 -0.010121674 0.7330101
000190 e2 3e b5 3e e0 cf 34 3e 9c 31 d2 bd 97 b4 36 3f
       0.35399538 0.17657423 -0.102633685 0.7136931
0001a0 a5 e1 f6 bc 41 2e 3e 3f 0d a1 31 be 13 9a 0a bf
       -0.030136893 0.7428933 -0.17346592 -0.5414135
0001b0 ff 51 0d 3f ef 56 e8 3e 27 1f 0a be d6 8e 00 bf
       0.5520324 0.45378825 -0.13488446 -0.5021795
0001c0 b0 30 49 be 08 f3 62 be 20 5b b0 be 29 f5 11 bf
       -0.19647479 -0.22163022 -0.34444523 -0.5701471
0001d0 a0 4e 81 3c 02 2f a2 3e dc cb 05 3f ab d0 52 bf
       0.015784562 0.3167649 0.5226419 -0.8234965
0001e0 50 55 37 bd 9e 02 e3 3e df b0 0a 3e 25 65 31 3f
       -0.044759095 0.44337934 0.13544033 0.6929496
0001f0 0a 51 ec 3e c0 48 26 3f de 1c 26 3e a0 f9 dd 3d
       0.46155578 0.6495476 0.1622195 0.10838628
000200 4c 92 18 3e e6 6f b3 3e 1c 41 6e be 2c 0c 8a 3e
       0.14899558 0.3504631 -0.23267025 0.2696241
000210 b9 5e a3 be 0b a2 a7 3e e1 a8 ef be d5 a1 35 3f
       -0.31908205 0.32740816 -0.46808532 0.7095006
000220 3b 82 d0 be 4a 99 0a 3f b2 97 d7 be 9f 25 6f 3e
       -0.40724358 0.5414015 -0.42107922 0.23354195
000230 b9 64 37 3f 60 2a 1b be 7e 85 a7 3e e2 9c 20 3f
       0.71638066 -0.15152884 0.32719034 0.62739384
000240 15 09 c1 3e c2 f6 d4 be 38 3a 36 bf 79 a2 49 3f
       0.37702242 -0.4159451 -0.71182585 0.7876354
000250 21 ff 0a 3f 61 77 07 3f 4c b9 3f 3e 5b 0e d4 be
       0.54295546 0.5291653 0.18723029 -0.41417202
000260 73 cb 28 3e 48 db 3d 3f e0 02 93 be 81 d3 fc be
       0.1648386 0.7416272 -0.2871313 -0.49380115
000270 d0 a9 ac bd c4 fd 77 be 10 a1 ff be 45 eb 0e 3f
       -0.08430827 -0.24217898 -0.49927568 0.5582774
000280 04 1c 18 3e 30 55 70 3d a3 2b ce bd a3 8c 81 be
       0.14854437 0.05867499 -0.10066917 -0.2530261
000290 ed 9b 0a bf 8d 97 2e 3f ba 44 38 bf dd 8d e9 be
       -0.54144174 0.682 -0.7197987 -0.45616046
0002a0 e3 17 a2 3e 3a 48 e4 3e 0b 8f 23 bf 3f 3f 02 3f
       0.3165885 0.44586354 -0.6389014 0.50877756
0002b0 9c e9 96 3e 23 e4 46 3f f4 d3 98 be a0 5a 9b be
       0.29475105 0.7769186 -0.29849207 -0.3034258
0002c0 94 b8 27 be 28 3e 63 be 27 4a 26 bf e5 4e 78 be
       -0.16379005 -0.2219168 -0.649569 -0.24248846
0002d0 d6 f7 8a 3e 44 97 f8 be 09 f1 82 be 86 bc 29 be
       0.2714221 -0.48552907 -0.2557452 -0.16575822
0002e0 ff 24 12 bf 9b 53 e9 be 6e a2 9d be 73 bc 09 bf
       -0.570877 -0.45571598 -0.30787987 -0.53803176
0002f0 8f 75 c7 be 45 c4 06 bf 9c 44 24 bf c8 49 f0 3d
       -0.38956878 -0.52643234 -0.6416719 0.11732823
000300 73 d2 74 be 05 a3 f7 be 86 a3 5b be e2 1d 09 3f
       -0.23908405 -0.48366562 -0.21449098 0.5356122
000310 b1 b9 59 3f 08 39 38 3f 02 5a fe be 03 e1 2e be
       0.8504897 0.7196202 -0.49678046 -0.17078023
000320 f0 a2 95 be b9 f4 14 3f e3 22 1a 3e 65 14 4b 3f
       -0.29225874 0.5818592 0.1505237 0.79327995
000330 a2 3b 00 bf 0f 5a e3 be 89 69 57 3e 1c be 0a 3e
       -0.5009099 -0.44404647 0.21036352 0.13549083
000340 9c d4 65 3e 00 68 ee bc d6 3a 1d bf 69 35 e9 be
       0.22444385 -0.029102325 -0.614179 -0.4554856
000350 a6 d8 f6 3e 70 10 12 bf 58 9b 88 3d 05 3c 38 bf
       0.48212165 -0.5705633 0.066702545 -0.7196658
000360 ce 67 ca be 64 39 b6 be 7d 2b 28 3f ac 43 dd be
       -0.39532322 -0.3559066 0.6569136 -0.43215692
000370 1f 3f ab 3e b7 2a 39 bf 74 b0 1a be ca 69 dd be
       0.33446595 -0.723308 -0.15106374 -0.43244773
000380 91 33 c5 be 55 9e c1 be 14 17 00 3e 70 50 16 3d
       -0.38515905 -0.3781611 0.12508804 0.036697805
000390 03 19 9c be c8 07 d2 be ac c5 0f bf 7e d7 0e 3f
       -0.30487832 -0.41021562 -0.56161 0.55797565
0003a0 6e 37 e2 3e 64 a6 0c bf 94 b3 3a be f3 a1 5b 3e
       0.44182914 -0.5494139 -0.18232566 0.21448497
0003b0 48 46 9c bd b0 01 41 be fe bb c7 3e 6a 02 2c 3f
       -0.076305926 -0.188483 0.39010614 0.67191184
0003c0 a8 2c 9e 3d 12 fc 32 bf d5 ca fa 3e 0a f9 22 3e
       0.07723361 -0.6991588 0.48982874 0.15915313
0003d0 63 97 a4 be 5f f8 da 3e 7a 40 19 3f 76 c1 2a 3f
       -0.3214675 0.42767617 0.5986401 0.6670145
0003e0 db e3 76 3e 14 bd da be b0 bc 35 3f 4d 79 c6 bd
       0.24110357 -0.4272238 0.7099104 -0.09691105
0003f0 2d 72 94 3e 4f b3 ef 3e 8c 26 f2 3e b2 57 18 bf
       0.2899336 0.4681649 0.47295034 -0.5950881

fc1.bias f4 [128]
000000 7d 6b 0b 3f 7c 41 27 be fc 2c 31 bf 8a 35 2d 3e
       0.5446089 -0.16333574 -0.69209266 0.16914955
000010 a9 87 07 3e 5c 04 09 be 77 c5 c8 3e 8f e8 32 3e
       0.13235344 -0.13380569 0.39213154 0.17471527
000020 6e 36 b2 bd b9 a3 2c 3d 10 5b e3 3e 8c 63 5f be
       -0.08701788 0.042148326 0.44405413 -0.21815318
000030 6e e3 28 3f 00 33 ad be d1 e2 15 bf c4 25 b4 3e
       0.6597203 -0.33827972 -0.5854922 0.35185063
000040 71 24 8c be dc 66 cf be 56 99 fe be c1 bf d9 3e
       -0.27371553 -0.40508163 -0.4972636 0.4252911
000050 f7 0b ce be 6e 13 d3 3e 09 c5 42 3e e7 4a cb be
       -0.40243503 0.4122576 0.19020475 -0.39705583
000060 d2 61 d8 3e f5 27 72 3e 04 c8 34 bf cb 39 8e be
       0.4226213 0.23648055 -0.706177 -0.27778468
000070 f3 ad e1 3e 8f e9 e0 3e 02 fe ea 3e 42 50 74 be
       0.44078025 0.4392819 0.45896918 -0.23858741
000080 fc 10 00 be 13 a6 e5 3e 11 86 ba bc b1 26 3b 3e
       -0.12506479 0.44853267 -0.022769006 0.18276478
000090 18 cd 97 be 9d 38 17 be c6 f9 23 3f f7 e5 e3 be
       -0.29648662 -0.1476769 0.64053 -0.44511387
0000a0 a6 07 1a bf 94 2b 98 3e dc a7 3c 3e b4 1d d9 3d
       -0.6016792 0.29720747 0.18423408 0.106013685
0000b0 e6 12 50 3e ba 20 83 3d 15 a1 f0 3e 51 c1 2f bf
       0.20319709 0.064027265 0.46997896 -0.6865435
0000c0 ab cc 14 3f f7 42 1a 3e b0 62 25 bf bb 65 fd 3e
       0.581248 0.15064608 -0.6460371 0.49491677
0000d0 b5 09 64 3b 8f 7a 32 3f ab b6 cc be 91 cf 3a 3f
       0.0034795825 0.6971826 -0.39983115 0.7297297
0000e0 0a b9 29 3f a7 07 10 3f 0f 2a 01 bf 3e 54 4f 3e
       0.6629797 0.56261677 -0.504548 0.2024698
0000f0 40 43 33 bf 5e 22 e9 3e 63 51 36 3f b7 70 c9 3e
       -0.7002449 0.45534033 0.71217936 0.39343807
000100 7c 1d 0d bf a3 5b 0e bf 05 b4 6c 3d a8 7a 9b 3e
       -0.55123115 -0.55608577 0.057788868 0.30367017
000110 ac ab 1f be 68 6f e6 3e ab 80 24 3f 67 b8 18 bf
       -0.15592831 0.4500687 0.6425883 -0.59656376
000120 a1 8e 33 be ea 53 6a 3e 21 fb 3d 3f cc 47 5a be
       -0.17534877 0.22883573 0.7421132 -0.21316451
000130 fe a2 eb 3e 7f 2e 86 be 80 88 e5 bb af c9 1d bf
       0.4602279 -0.2620735 -0.0070047975 -0.6163587
000140 3b b1 0e bf 80 ea 63 3e a2 69 3a 3d c9 de e8 3e
       -0.5573918 0.22257423 0.045510896 0.45482472
000150 f6 7d 55 bd c3 fe 8a 3e b2 1c 1a 3e 8b 23 93 be
       -0.05212208 0.27147493 0.15050009 -0.28738055
000160 91 c4 82 be 48 68 29 3f 47 88 4a 3c bf d0 3f 3e
       -0.25540593 0.66174746 0.012361593 0.18731974
000170 30 1c 31 3f 3c d3 77 be 85 f9 d6 3e 62 66 b7 3e
       0.69183636 -0.24201673 0.41987243 0.358203
000180 fd 4e 1c 3f f3 da 2b 3f 31 7c b1 3e d0 b5 bc 3e
       0.61058027 0.67130965 0.34665063 0.36857462
000190 2a 59 fa be a5 27 f3 bd 54 d3 91 be 94 41 d0 3c
       -0.48896152 -0.11872796 -0.28481543 0.025421895
0001a0 96 7a 7a be 02 14 1a bf 99 7a b2 be dc 4c 0c 3f
       -0.24460825 -0.6018678 -0.3485916 0.5480478
0001b0 c0 a4 ad 3e 40 a3 32 bf a8 95 34 3f 67 9c b7 be
       0.33914757 -0.6978035 0.7054086 -0.35861513
0001c0 08 62 09 3f 88 54 14 3f f0 58 0d bd 66 fa b1 3e
       0.5366521 0.57941484 -0.034508646 0.3476135
0001d0 03 eb dd be d6 47 de 3e e0 13 f5 bc ba 93 b4 be
       -0.43343362 0.4341418 -0.029916704 -0.35268956
0001e0 aa ce d4 be fd 7d 5b 3d cb 2b dd bd 50 74 e7 be
       -0.41563922 0.05358695 -0.107993685 -0.45205927
0001f0 3d a9 ad 3e 83 91 1d 3f 4a cc 23 3f 04 c8 9b 3e
       0.3391818 0.6155016 0.63983595 0.30426037

fc2.weight f4 [128, 128]
000000 56 cd cf 3c 86 28 12 bd 2a 61 17 3d ca 03 eb bb
       0.025366466 -0.035683177 0.036957897 -0.0071720826
000010 a6 e1 5f 3d 1c 32 95 bc 7e 11 a9 bd 62 da e0 bc
       0.054658554 -0.01821237 -0.082552895 -0.027447883
000020 79 a0 24 3e 8d 4b 85 bd eb 7d c7 bd 13 75 1d bd
       0.1607684 -0.06508551 -0.09740814 -0.03844173
000030 4a c8 64 bd 5e 6c ea bd 92 8d 20 3d 2f 46 48 3d
       -0.055855073 -0.11446451 0.039197512 0.048895057
000040 04 25 96 3c 80 62 40 3a 67 4c 89 3d 1d de 6a 3b
       0.018328197 0.00073388964 0.06704026 0.0035837956
000050 0a 1e 34 bd 61 4c 6b 3d 9a 0c 4c bc fa 5d 66 3d
       -0.04397396 0.057445887 -0.012454176 0.056241967
000060 d9 28 96 3c 44 69 56 bd 2e 23 21 3d 38 92 d5 3c
       0.018330025 -0.052346483 0.03934019 0.0260707
000070 3e 94 95 bd d4 84 cb bc bb e2 e3 3c b5 80 aa 3d
       -0.073036656 -0.02484361 0.027818074 0.0832533
000080 90 fe 04 bd 0b ba 82 bd 9f 73 66 3c 95 f0 54 3d
       -0.032469332 -0.06383141 0.014065652 0.05198725
000090 88 b8 ba bd 9b fa b7 bd 2c 5d 05 3d 90 6d ee 3b
       -0.09117228 -0.08983346 0.03255956 0.0072762445
0000a0 0e 5b 15 bd 62 05 b7 bd 9d 5a a0 bd fb 6f 40 bd
       -0.03646379 -0.089365736 -0.07829783 -0.046981793
0000b0 0d 90 aa bd bf 7e 08 3d e4 24 2d bb 75 4e 68 3b
       -0.08328257 0.033324 -0.0026419694 0.0035447155
0000c0 cf d5 f6 bc 23 10 9c 3b e5 4d b1 3d 33 8d 8f bc
       -0.030131249 0.004762666 0.08657435 -0.017523384
0000d0 1e ca c9 bd 4c e9 60 3c ee 4d 05 3c 4f 97 dd bd
       -0.09853004 0.013727497 0.008136256 -0.108198754
0000e0 09 fc a6 bd 94 37 46 3d e8 f0 40 bc 7c 4b 89 3c
       -0.08153541 0.048392847 -0.0117761865 0.016759627
0000f0 09 70 15 bd 69 d2 21 3d 63 01 94 3d c9 e0 e5 3c
       -0.0364838 0.039507303 0.07226827 0.028061287
000100 79 50 8c bd 62 54 72 3d 43 10 c5 bb a2 02 27 bd
       -0.068512864 0.059162505 -0.0060139014 -0.040773995
000110 66 90 dd bd a9 2c f8 bc 68 ff 2f bd cc 8e 38 bd
       -0.108185574 -0.030294733 -0.042968184 -0.045058057
000120 95 ba 38 bd c2 6f b3 3d 51 d3 fe 3b e3 ec a8 3d
       -0.045099813 0.087615505 0.0077766557 0.082483076
000130 58 fb 70 3c a1 d7 ad 3d 14 d0 89 bc c3 37 8a 3d
       0.0147083625 0.084883936 -0.016822852 0.06748917
000140 40 92 e4 3b fb d2 52 3c e1 81 ad 3d e0 e1 d1 bd
       0.006975442 0.0128676845 0.08472038 -0.1024816
000150 a5 f8 8a 3c a4 70 a6 3b f9 b0 a2 3c bc b5 14 bd
       0.016964266 0.005079346 0.019859778 -0.036306128
000160 22 d7 e0 bc a2 d9 e8 3c b5 2a b4 3c a4 71 8f 3d
       -0.027446333 0.028424088 0.02199302 0.07004097
000170 a8 f0 7c 3c 52 4d 54 3d ad c7 9d 39 61 71 2d bd
       0.015438236 0.05183155 0.00030094144 -0.042344455
000180 88 b5 38 3d 0d 09 7e 3b 4a e8 94 3d 47 d0 4e bc
       0.045094997 0.003876272 0.07270868 -0.012622899
000190 0a 86 1a 3d ab 1b a4 bd 9b bf ab bd f7 c3 07 bd
       0.037725486 -0.0801309 -0.08386155 -0.03314587
0001a0 90 1b 27 bd 5c ff 1f bd 9b 95 a1 3d e3 22 c2 bd
       -0.04079777 -0.03906189 0.07889863 -0.0947931
0001b0 3e 3b c2 bd 8e 57 44 3d a5 ee 91 3d 9c 3d 9f bc
       -0.09483956 0.04793506 0.07125596 -0.019438557
0001c0 f3 8e 38 3c a1 ca b6 bc 96 b8 01 3d dd e5 98 3c
       0.0112645505 -0.022313418 0.031670175 0.018664295
0001d0 ea 53 25 3d 1b 64 12 3d 94 19 bb bc 19 32 77 3d
       0.04036323 0.03574 -0.022839345 0.06035051
0001e0 16 9a 75 3d d6 cb 39 bd 09 b6 c0 bc 8d 03 7c bc
       0.0599614 -0.04536041 -0.023524301 -0.015381706
0001f0 98 90 8d bd ea fb 5a bc 9b 24 e9 3c 32 e4 b5 bd
       -0.06912345 -0.013365725 0.028459838 -0.088814154
000200 ed 48 9f bd 1e 41 47 3d 64 d4 41 bd f9 6a 82 3d
       -0.07777581 0.048646085 -0.047321692 0.0636806
000210 6b d6 b0 bd 74 76 de 3c a9 8c ac 3d c0 22 ee 3b
       -0.08634647 0.027156092 0.08425266 0.007267326
000220 2e cd 5c 3d d0 5e 93 bd 7b 3e ad bd a2 5f 2a 3d
       0.053906612 -0.071958184 -0.08459183 0.04159511
000230 3b 1f 9b bd 09 63 81 bd e8 0a 4a bd 12 94 35 bd
       -0.07574316 -0.063177176 -0.049326807 -0.044330664
000240 f0 45 a9 3c 00 b3 fa 3c c0 99 ca bc 6c c8 98 bc
       0.020663232 0.030602932 -0.024731517 -0.018650256
000250 1c 73 a3 3c 68 cf d6 3c f9 69 99 3d a4 e9 a7 bc
       0.01995235 0.026221946 0.07490916 -0.02049715
000260 c8 cb 55 3c 59 cf 96 3d 7c 88 6b bd b0 4c a9 3c
       0.0130490735 0.07363767 -0.05750321 0.02066645
000270 e0 92 8c 3c 9e b4 17 3d ec ae 9a 3c 43 00 aa bd
       0.01715988 0.037037484 0.018882237 -0.08300831
000280 1d 14 9c bd 40 af 94 bd a7 fb 4e bd 40 e8 51 bb
       -0.07621024 -0.07259989 -0.050532963 -0.00320293
000290 10 4b cb 3c 94 3f 96 3c d7 14 a9 bd f3 9f a9 3d
       0.024816066 0.018340863 -0.08255928 0.08282461
0002a0 06 a2 32 3d b3 c1 9c 3d 08 fb 29 bc d0 65 bc 3b
       0.04361155 0.07654133 -0.010374792 0.0057494417
0002b0 3c 4a a1 bc 50 c7 37 3c 80 72 83 bd de 01 20 bd
       -0.019688718 0.011216953 -0.064183235 -0.03906428
0002c0 ef 58 0e bd 9d 25 19 bd ef fc 9e bd 70 bf 52 bc
       -0.034752782 -0.037389386 -0.07763087 -0.012863025
0002d0 a8 7d 5d 3c ef 1e 95 3d a4 70 91 bd 86 45 a5 bd
       0.013518728 0.07281291 -0.071015626 -0.08069901
0002e0 64 39 e7 bc 70 9f 8b 3b 08 f3 91 3c 80 6d 99 3c
       -0.028225608 0.00426095 0.017816082 0.018728971
0002f0 a7 aa ae bd d7 38 9c 3d 03 0e 54 bd 70 97 25 3c
       -0.08528643 0.07628029 -0.051771175 0.010106906
000300 38 89 f6 3c 19 47 31 bd 98 e4 0d bd f5 2d 49 bd
       0.030094728 -0.043280695 -0.034641832 -0.049116094
000310 ee 93 b4 bd 1c 42 14 3d a2 a5 9d bd 0b dd aa 3d
       -0.08817278 0.03619586 -0.076976076 0.08342942
000320 28 78 25 3c cc 11 1c bd b0 80 ff 3b 18 22 ec bc
       0.010099448 -0.03810291 0.007797323 -0.02882485
000330 97 07 a4 3d 80 fb 90 3c 28 68 9e 3c 8e f1 3e 3d
       0.0800926 0.01769805 0.019336775 0.046617083
000340 f0 f0 3b bd 60 03 94 bc a6 2b d9 bc e2 5e 18 bd
       -0.045884073 -0.018068016 -0.026510071 -0.037199862
000350 8a 0f 1a 3d f8 48 ab 3c 7c 12 8c 3c 6a 90 24 bd
       0.037612475 0.020908818 0.017098658 -0.040176786
000360 0f 10 38 bd 3f d6 41 bd cf 95 a5 3d d8 0e 89 bd
       -0.04493719 -0.04732346 0.08085214 -0.06692284
000370 70 b2 f0 3c 71 9b 84 3d 97 38 a8 3d 61 8c b0 3d
       0.02938196 0.064749606 0.08213919 0.08620525
000380 5b 6a 28 bd 07 21 5a bd c4 0e 43 bd a0 50 af bd
       -0.041117053 -0.053254154 -0.047621503 -0.085603
000390 06 14 af bd cc bd 05 3d 50 1c 20 3c 74 31 46 bd
       -0.08548741 0.032651708 0.009772375 -0.048387006
0003a0 36 80 2c bd da a7 75 3d 3d db 28 bd 96 5f 3f 3d
       -0.04211446 0.05997453 -0.041224707 0.046722017
0003b0 a8 ea 20 3c ac 74 b4 bd b0 43 8a bd 30 69 72 bc
       0.009821571 -0.08811316 -0.067511916 -0.0147955865
0003c0 6e 63 56 3d c7 64 85 bd d4 92 e4 3c be 97 28 3d
       0.052340917 -0.065133624 0.027902044 0.041160338
0003d0 85 fb 9a 3d dd b9 5a bd a0 b1 9d bd 47 a0 a0 3d
       0.07567505 -0.05339991 -0.07699895 0.078430705
0003e0 20 86 32 3c c6 6d 5d 3d 59 3b 9b 3d 06 88 34 3d
       0.010896236 0.054059766 0.07579679 0.044075035
0003f0 1d 60 9b bd 5c 9b 0e bd 76 37 63 3d 70 89 e9 bb
       -0.075866915 -0.03481613 0.055472814 -0.0071269795

fc2.bias f4 [128]
000000 59 88 42 3d d3 f1 80 3d ec 7f e8 bc f0 e9 e2 3d
       0.047493313 0.06296124 -0.02838131 0.11079776
000010 5e 66 b1 bd 01 ca f9 3b a6 d8 61 3d 74 90 4e 3d
       -0.08662103 0.0076229577 0.055138253 0.05043073
000020 6a db db 3c 1d 7a 61 3a d8 e7 de 3d 22 37 97 bd
       0.026838023 0.0008601265 0.108840644 -0.073835626
000030 d5 95 90 3c 5a 5f 4c 3d 3e b1 2a bd a3 46 ed bc
       0.01764957 0.04989562 -0.041672938 -0.028964346
000040 63 fd e0 3d 9a 71 8f bd 06 fc e3 3c fb 45 9b 3d
       0.1098583 -0.0700409 0.027830135 0.07581707
000050 d0 3e c0 bb e9 17 24 bc 8a fb a8 bd f6 1c 2b 3d
       -0.005866863 -0.010015466 -0.08251102 0.041775666
000060 53 dd 70 bc 4d a2 aa bd b0 9d d2 3d cd 7e 2c bd
       -0.014701205 -0.08331738 0.10283983 -0.042113114
000070 80 7a b8 3d 4c a8 56 3d e6 be a8 bd 33 d1 92 bd
       0.0900774 0.052406594 -0.08239536 -0.07168808
000080 00 f0 42 3e 82 a3 ce 3d a7 9c 9c 3d be 95 c6 3d
       0.19036865 0.100897804 0.076470666 0.0969653
000090 a3 e6 72 3d 73 fb aa 3d aa 43 3b bd 72 7d fd bc
       0.059301984 0.083487414 -0.045718826 -0.030943606
0000a0 96 3c 7a 3d d5 b4 0e 3e 0a 21 d9 3c db 1c 24 bd
       0.061092936 0.1393617 0.026505012 -0.04006658
0000b0 43 d4 28 bd c6 dc 5c 3d ff 70 9a 3d 65 e7 9a bd
       -0.041218054 0.053921483 0.075410835 -0.07563666
0000c0 ec e2 a6 bc 71 e0 30 bd 27 7a d5 bc 51 b6 e4 bc
       -0.020371877 -0.043182794 -0.026059223 -0.027918966
0000d0 29 37 8a 3d 58 c8 1e bd 18 21 bf 3c 6e ea 90 3d
       0.06748802 -0.03876528 0.02333121 0.07075964
0000e0 6d ac cd 3d 7a 2b a1 bd 6d c7 9b bd cc 4e 84 bd
       0.10042653 -0.078696206 -0.07606397 -0.06460342
0000f0 2e 88 b4 3d 2b 7b 06 bd 28 3b da 3d e6 1b 6a ba
       0.08815037 -0.032832306 0.106558144 -0.0008930549
000100 a9 e7 db 3d 88 fd 92 bc b2 6d a9 3d 9d 07 b1 bd
       0.10737545 -0.017943159 0.08272876 -0.0864403
000110 80 e6 74 3c d4 d9 14 3d 6b 8f 68 3d 67 06 49 3d
       0.014947534 0.03634055 0.0567774 0.04907837
000120 09 3b 76 3d dc 73 8c 3d 5c d6 a0 bd 72 e5 c4 bd
       0.060114894 0.06858036 -0.07853386 -0.09614076
000130 f3 19 ae 3d 53 ae 91 bd d7 98 1e 3d f7 dd fe 3a
       0.08501043 -0.07113328 0.03871998 0.0019444813
000140 59 a0 8b 3d 10 8e da bb d4 c7 ca bc 4d b9 bc bd
       0.06817693 -0.006669767 -0.024753489 -0.09215031
000150 a6 ff 34 3d e8 fa 94 bd d4 9c 4a bd 62 e8 41 3d
       0.044189118 -0.07274419 -0.04946597 0.04734076
000160 54 37 e0 bd 9b 58 4a bc 4c 64 2e 3d 3f e0 9d bd
       -0.10948053 -0.012350227 0.04257612 -0.07708787
000170 9e 76 92 3d ca 5a fa 3a cc 4c 04 be 3c 86 a7 ba
       0.07151531 0.0019100544 -0.1291992 -0.0012781094
000180 49 52 2d 3e 2c c4 c8 bc a2 29 32 3d c0 58 87 3b
       0.1692592 -0.024507605 0.043496735 0.004130453
000190 42 9b 08 bd 53 7a d4 bb f8 35 99 3d 25 2b 6f 3d
       -0.03335119 -0.0064843087 0.07480997 0.058390755
0001a0 4b 21 86 3d 8c 2f b5 3c 74 d4 01 3e 34 63 02 3d
       0.06549319 0.022117399 0.126787 0.03183289
0001b0 86 46 8d 3d a3 68 2b 3e d6 6d 75 3d 7c 4c 99 3d
       0.06898217 0.16739134 0.0599192 0.07485291
0001c0 49 d2 43 3e 21 17 54 bd 9a fa f4 bb 20 f7 99 3d
       0.19123186 -0.05177987 -0.007476163 0.075178385
0001d0 c2 30 2e 3c d5 73 fd 3c 5b f7 21 3e 70 70 d8 bb
       0.010631742 0.030939022 0.15817015 -0.0066052005
0001e0 41 91 bb bc a9 f3 51 bd 76 95 a8 bd c9 40 c0 3d
       -0.02289641 -0.051257763 -0.082316324 0.09387357
0001f0 0a e5 77 3c ac 01 13 3d 82 4a 05 3d ae 7d 7a 3d
       0.015130291 0.035890266 0.03254176 0.061155014

fc3.weight f4 [4, 128]
000000 de a5 65 bd 54 37 df bc bf ae d6 3d 00 1a f1 3d
       -0.056066386 -0.027248062 0.10482549 0.11772537
000010 ef 91 08 bf ea 34 39 3d 19 1c 9a bd 7a ed 19 bf
       -0.53347677 0.04521648 -0.075248905 -0.60127985
000020 84 24 b1 3e 01 26 9b be 56 f7 5f 3d 3d b7 65 bf
       0.34598172 -0.30302432 0.054679237 -0.89732724
000030 59 ee 31 3e da 8c 1a 3d 8d ec 26 bd 01 e1 b4 3e
       0.17376079 0.037731983 -0.040752936 0.35327914
000040 8c 59 28 3d 68 59 14 be 72 98 aa bd fc 17 2d bd
       0.041101024 -0.14487231 -0.08329858 -0.0422592
000050 5b 07 85 3d 38 7a 1c bc 3a 93 42 3d 69 0d 6e bd
       0.064955436 -0.009550624 0.047503687 -0.058118258
000060 ef a2 e1 be 39 3b ae bd af ad 12 3e e4 5c a1 3e
       -0.4406962 -0.085073896 0.14324068 0.31516182
000070 73 78 89 3e 55 af 0f bf 71 c6 4c 3e 1e c3 9d be
       0.26849708 -0.5612691 0.19997574 -0.30812925
000080 a3 2c f3 3d b4 b7 0c 3e 1d c1 1f 3d 3f 33 24 3e
       0.11873748 0.13741952 0.039002527 0.16035174
000090 11 a2 e7 3d 88 9c dd 3c a9 cb a4 3d da 83 6c bd
       0.113102086 0.027052179 0.080466576 -0.05774293
0000a0 76 8c ef 3d 40 0a 42 3d 43 5a 21 bc 39 ce 2a bc
       0.11696713 0.047373056 -0.00984818 -0.010425144
0000b0 9e 23 ca be c8 6a 0d 3d 93 2f e9 bc 51 99 43 bd
       -0.394803 0.034525663 -0.028465068 -0.047753636
0000c0 86 ac 83 bd cc 2f 0f bf 4c 55 e3 bc b6 b9 ce bc
       -0.064293906 -0.5593231 -0.027750634 -0.025235038
0000d0 85 d2 b7 3d 74 dc af bd 90 73 47 bf e3 ab 7f be
       0.089757 -0.0858697 -0.7791071 -0.24967913
0000e0 49 a4 07 3e cf b9 8a bd a9 20 48 bd d2 31 39 bd
       0.13246264 -0.067737214 -0.048859272 -0.045213528
0000f0 3d 77 36 3e 78 41 49 bf ab 6c a9 be c5 f1 5e bd
       0.17818923 -0.7861552 -0.3309072 -0.05442979
000100 3f 6d 33 3e e9 65 1b 3f 02 c7 4f 3e df 3b 81 3d
       0.17522143 0.6070238 0.20290759 0.06310248
000110 1c c9 4f bd 58 b6 2a bf 7e 07 2a 3e 79 03 49 3e
       -0.050728902 -0.66684484 0.1660442 0.19630231
000120 31 02 05 3e 17 f6 60 3e 76 f0 99 3d d8 49 30 3d
       0.12989117 0.21968876 0.075165674 0.043039173
000130 4c 05 3f 3e 1a 9d 3c 3d a8 6b 0a 3e 56 79 00 3e
       0.18654364 0.04604826 0.1351763 0.12546286
000140 f9 82 b0 3d 1e 23 86 bd 81 bf 2a 3e 9e cd 22 3a
       0.08618731 -0.06549667 0.16674615 0.0006210449
000150 12 35 64 3d 10 24 99 3e ce db 97 3c d4 96 43 bd
       0.055714674 0.29910326 0.018537428 -0.047751263
000160 b1 b5 24 bf a5 d8 ca 3d 0a c8 c0 3c 88 7c 45 bd
       -0.6433974 0.09904603 0.023532886 -0.048214465
000170 de 7a 74 3d 45 e4 25 bf 8a f6 22 3e 16 a6 a7 3d
       0.059687488 -0.64801437 0.1591436 0.08185975
000180 34 74 b5 3d 2d 3d 4c bd 8d 92 19 bf 18 ab 18 bd
       0.088600546 -0.04986303 -0.59989244 -0.037272543
000190 74 06 9b 3c 76 e6 cf 3e 3b e9 60 bd 6b 10 17 bf
       0.018923976 0.40605515 -0.054909926 -0.59009427
0001a0 bb c0 a0 bd b8 7b c9 3c 38 39 cb 3d 65 58 dd bd
       -0.078492604 0.024595127 0.09923023 -0.108078755
0001b0 47 23 6e 3d 63 74 b9 3d 87 48 a0 bd f2 9e fd 3a
       0.05813911 0.09055402 -0.078263335 0.0019349738
0001c0 e0 17 f0 3d 7c 90 9d bc bb 22 87 bd 75 80 d2 bc
       0.11723304 -0.019233935 -0.06598421 -0.025696019
0001d0 18 11 12 3d 3d f6 7b 3d 84 e7 05 3e 4c 30 95 bc
       0.035660833 0.061514128 0.13076597 -0.018211506
0001e0 9c 6e 0b be 78 e8 ed 3c 9c 34 1d 3d 6a 90 83 be
       -0.13616413 0.029041514 0.03838025 -0.25696117
0001f0 0e 28 78 bc 3f f2 6f be cb 95 a0 3d 22 94 09 3e
       -0.0151462685 -0.23432253 0.07841071 0.13435414
000200 e7 83 dc bb 48 67 b5 bc 57 43 39 be 39 bb 10 3e
       -0.006729591 -0.022143975 -0.18092094 0.1413392
000210 3b e9 99 be b8 86 96 3d 03 83 18 3d 8b a3 e3 be
       -0.30060753 0.07349914 0.037234318 -0.4446071
000220 e7 c7 be bd e0 85 20 be 2f 76 f7 3d 23 75 70 bb
       -0.09315472 -0.1567607 0.120830886 -0.0036690913
000230 11 72 26 3e 1b 42 08 bd 46 a7 5d 3d 2c 7b 9d be
       0.1625445 -0.033266168 0.054114603 -0.30758035
000240 33 65 28 3e 32 eb ed be 6c 9e 34 bd b6 3a 75 3d
       0.16444854 -0.46468502 -0.044096395 0.059870444
000250 56 44 5e 3d 4f 7d 48 bc df d0 80 3d 8c 38 96 bd
       0.05426439 -0.012236907 0.06289839 -0.07335004
000260 0b b9 9b be b0 41 3c 3c 37 0d 1e 3e 76 d0 af 3d
       -0.30414614 0.0114902705 0.15434729 0.08584683
000270 7c 69 3e bc 19 7f 37 be 12 20 5e 3c 16 8b e8 3d
       -0.011621829 -0.17919578 0.013557451 0.113546535
000280 33 47 39 3d 81 09 9d 3c 52 ca 95 bc b5 97 12 3d
       0.045233916 0.01916957 -0.01828495 0.03578921
000290 b2 a4 22 3c 56 4a 8c bd 68 33 70 bd 0d 92 b1 3d
       0.009926962 -0.06850116 -0.058642775 0.08670435
0002a0 2e ac e1 bd b5 60 9e 3d 3e 81 6c bd 67 30 96 3d
       -0.11019169 0.07733289 -0.057740442 0.07333451
0002b0 c5 96 a2 be 68 d9 e0 3c e9 80 24 3d 4c 77 68 3d
       -0.31755653 0.027447417 0.040162 0.056754395
0002c0 15 72 07 3f aa 0e 88 be 0d 03 dc bc 2d 11 5b 3d
       0.5290845 -0.26573688 -0.026856923 0.053483177
0002d0 ae b2 1f 3e 94 01 d2 bc b8 a7 ca be a1 5b 9d bd
       0.15595505 -0.025635518 -0.39581084 -0.076834925
0002e0 e6 d3 c6 3d fe 31 17 3d d0 46 10 3d 9e c0 6a 3d
       0.09708385 0.03691291 0.035223782 0.0573126
0002f0 c2 74 35 be b6 41 00 bd 49 2b a9 3e b0 16 b7 3c
       -0.17720321 -0.031312667 0.33040836 0.022349685
000300 75 7e 6f 3b 94 d3 a5 3d 77 c6 1c 3e 36 e5 f0 bc
       0.003654388 0.08096996 0.15310083 -0.029406171
000310 d7 47 8f bd ab 85 82 3d 82 12 2e 3e 0f 96 0b 3e
       -0.06996124 0.063731514 0.16999248 0.13631462
000320 86 8f 02 3e 7e 19 78 3e dd be 8b 3d 64 bc a9 bd
       0.12750062 0.24228474 0.06823514 -0.08287886
000330 f8 be ae 3d 20 6c 96 3b 2f 1c 84 bd d1 a9 15 3e
       0.08532518 0.004590526 -0.06450688 0.14615561
000340 50 33 5a bc 9a 84 58 3d 07 a8 08 be aa ec 99 bd
       -0.013317898 0.052860834 -0.13345347 -0.07515843
000350 82 d4 71 3d 11 fe ed bb 80 c5 81 bd 73 62 f6 3c
       0.059040554 -0.007262953 -0.06336498 0.030076241
000360 5c 66 62 be 07 e9 74 3c 4b be 3e bb be 87 1f 3d
       -0.2210936 0.014948136 -0.0029105123 0.038947813
000370 68 83 4f 3e a4 f6 14 bc 99 72 34 bf 01 6f 1f 3d
       0.20264971 -0.009092007 -0.7048736 0.03892422
000380 10 af 53 3e ab da a0 bd 58 6c 0a bf 58 0b e9 3c
       0.2067225 -0.078542076 -0.5407157 0.028447792
000390 d3 a7 f7 3c 62 66 c8 3d c2 21 48 bd e6 7a 40 be
       0.030231392 0.09785153 -0.04886032 -0.18796882
0003a0 8e c2 e1 bc 89 67 86 3d 25 b4 ae 3d 5a 98 80 3d
       -0.027558591 0.065627165 0.085304536 0.06279059
0003b0 63 a2 cf 3d c5 fd cd 3d c3 b2 99 bd 1f 0b b9 bc
       0.10138395 0.10058168 -0.07504799 -0.02258831
0003c0 00 67 2c 3e 9b 68 48 bd e9 fe 1a bd 16 54 6d 3e
       0.16836166 -0.048927885 -0.037840758 0.23176607
0003d0 fa 05 01 3e 2b 49 4f 3e 02 85 10 3e a1 09 98 3d
       0.12599936 0.20242755 0.14113238 0.074237116
0003e0 19 35 99 be ec 7e a4 3c 76 84 a6 bd 6e 5e c9 3c
       -0.29923323 0.020080052 -0.08130734 0.02458116
0003f0 e2 e6 31 bb 09 52 08 bd 94 35 01 3d 44 88 30 bc
       -0.0027145674 -0.03328136 0.031545237 -0.010774676

fc3.bias f4 [4]
000000 38 36 88 3c 9c 28 e1 3d 5c 0d 08 3d bb 7a 77 3c
       0.016627416 0.10994074 0.033215865 0.015104945
